X_train: (4025, 224, 224, 3) - y_train: (4025,)
X_val: (711, 224, 224, 3) - y_val: (711,)
Model: "model"
__________________________________________________________________________________________________
 Layer (type)                Output Shape                 Param #   Connected to                  
==================================================================================================
 input_1 (InputLayer)        [(None, 224, 224, 3)]        0         []                            
                                                                                                  
 conv2d (Conv2D)             (None, 112, 112, 64)         9472      ['input_1[0][0]']             
                                                                                                  
 batch_normalization (Batch  (None, 112, 112, 64)         256       ['conv2d[0][0]']              
 Normalization)                                                                                   
                                                                                                  
 tf.nn.relu (TFOpLambda)     (None, 112, 112, 64)         0         ['batch_normalization[0][0]'] 
                                                                                                  
 max_pooling2d (MaxPooling2  (None, 56, 56, 64)           0         ['tf.nn.relu[0][0]']          
 D)                                                                                               
                                                                                                  
 conv2d_1 (Conv2D)           (None, 56, 56, 64)           36928     ['max_pooling2d[0][0]']       
                                                                                                  
 batch_normalization_1 (Bat  (None, 56, 56, 64)           256       ['conv2d_1[0][0]']            
 chNormalization)                                                                                 
                                                                                                  
 tf.nn.relu_1 (TFOpLambda)   (None, 56, 56, 64)           0         ['batch_normalization_1[0][0]'
                                                                    ]                             
                                                                                                  
 conv2d_2 (Conv2D)           (None, 56, 56, 64)           36928     ['tf.nn.relu_1[0][0]']        
                                                                                                  
 batch_normalization_2 (Bat  (None, 56, 56, 64)           256       ['conv2d_2[0][0]']            
 chNormalization)                                                                                 
                                                                                                  
 add (Add)                   (None, 56, 56, 64)           0         ['batch_normalization_2[0][0]'
                                                                    , 'max_pooling2d[0][0]']      
                                                                                                  
 tf.nn.relu_2 (TFOpLambda)   (None, 56, 56, 64)           0         ['add[0][0]']                 
                                                                                                  
 conv2d_3 (Conv2D)           (None, 56, 56, 64)           36928     ['tf.nn.relu_2[0][0]']        
                                                                                                  
 batch_normalization_3 (Bat  (None, 56, 56, 64)           256       ['conv2d_3[0][0]']            
 chNormalization)                                                                                 
                                                                                                  
 tf.nn.relu_3 (TFOpLambda)   (None, 56, 56, 64)           0         ['batch_normalization_3[0][0]'
                                                                    ]                             
                                                                                                  
 conv2d_4 (Conv2D)           (None, 56, 56, 64)           36928     ['tf.nn.relu_3[0][0]']        
                                                                                                  
 batch_normalization_4 (Bat  (None, 56, 56, 64)           256       ['conv2d_4[0][0]']            
 chNormalization)                                                                                 
                                                                                                  
 add_1 (Add)                 (None, 56, 56, 64)           0         ['batch_normalization_4[0][0]'
                                                                    , 'tf.nn.relu_2[0][0]']       
                                                                                                  
 tf.nn.relu_4 (TFOpLambda)   (None, 56, 56, 64)           0         ['add_1[0][0]']               
                                                                                                  
 conv2d_5 (Conv2D)           (None, 28, 28, 128)          73856     ['tf.nn.relu_4[0][0]']        
                                                                                                  
 batch_normalization_5 (Bat  (None, 28, 28, 128)          512       ['conv2d_5[0][0]']            
 chNormalization)                                                                                 
                                                                                                  
 tf.nn.relu_5 (TFOpLambda)   (None, 28, 28, 128)          0         ['batch_normalization_5[0][0]'
                                                                    ]                             
                                                                                                  
 conv2d_6 (Conv2D)           (None, 28, 28, 128)          147584    ['tf.nn.relu_5[0][0]']        
                                                                                                  
 conv2d_7 (Conv2D)           (None, 28, 28, 128)          8320      ['tf.nn.relu_4[0][0]']        
                                                                                                  
 batch_normalization_6 (Bat  (None, 28, 28, 128)          512       ['conv2d_6[0][0]']            
 chNormalization)                                                                                 
                                                                                                  
 batch_normalization_7 (Bat  (None, 28, 28, 128)          512       ['conv2d_7[0][0]']            
 chNormalization)                                                                                 
                                                                                                  
 add_2 (Add)                 (None, 28, 28, 128)          0         ['batch_normalization_6[0][0]'
                                                                    , 'batch_normalization_7[0][0]
                                                                    ']                            
                                                                                                  
 tf.nn.relu_6 (TFOpLambda)   (None, 28, 28, 128)          0         ['add_2[0][0]']               
                                                                                                  
 conv2d_8 (Conv2D)           (None, 28, 28, 128)          147584    ['tf.nn.relu_6[0][0]']        
                                                                                                  
 batch_normalization_8 (Bat  (None, 28, 28, 128)          512       ['conv2d_8[0][0]']            
 chNormalization)                                                                                 
                                                                                                  
 tf.nn.relu_7 (TFOpLambda)   (None, 28, 28, 128)          0         ['batch_normalization_8[0][0]'
                                                                    ]                             
                                                                                                  
 conv2d_9 (Conv2D)           (None, 28, 28, 128)          147584    ['tf.nn.relu_7[0][0]']        
                                                                                                  
 batch_normalization_9 (Bat  (None, 28, 28, 128)          512       ['conv2d_9[0][0]']            
 chNormalization)                                                                                 
                                                                                                  
 add_3 (Add)                 (None, 28, 28, 128)          0         ['batch_normalization_9[0][0]'
                                                                    , 'tf.nn.relu_6[0][0]']       
                                                                                                  
 tf.nn.relu_8 (TFOpLambda)   (None, 28, 28, 128)          0         ['add_3[0][0]']               
                                                                                                  
 conv2d_10 (Conv2D)          (None, 14, 14, 256)          295168    ['tf.nn.relu_8[0][0]']        
                                                                                                  
 batch_normalization_10 (Ba  (None, 14, 14, 256)          1024      ['conv2d_10[0][0]']           
 tchNormalization)                                                                                
                                                                                                  
 tf.nn.relu_9 (TFOpLambda)   (None, 14, 14, 256)          0         ['batch_normalization_10[0][0]
                                                                    ']                            
                                                                                                  
 conv2d_11 (Conv2D)          (None, 14, 14, 256)          590080    ['tf.nn.relu_9[0][0]']        
                                                                                                  
 conv2d_12 (Conv2D)          (None, 14, 14, 256)          33024     ['tf.nn.relu_8[0][0]']        
                                                                                                  
 batch_normalization_11 (Ba  (None, 14, 14, 256)          1024      ['conv2d_11[0][0]']           
 tchNormalization)                                                                                
                                                                                                  
 batch_normalization_12 (Ba  (None, 14, 14, 256)          1024      ['conv2d_12[0][0]']           
 tchNormalization)                                                                                
                                                                                                  
 add_4 (Add)                 (None, 14, 14, 256)          0         ['batch_normalization_11[0][0]
                                                                    ',                            
                                                                     'batch_normalization_12[0][0]
                                                                    ']                            
                                                                                                  
 tf.nn.relu_10 (TFOpLambda)  (None, 14, 14, 256)          0         ['add_4[0][0]']               
                                                                                                  
 conv2d_13 (Conv2D)          (None, 14, 14, 256)          590080    ['tf.nn.relu_10[0][0]']       
                                                                                                  
 batch_normalization_13 (Ba  (None, 14, 14, 256)          1024      ['conv2d_13[0][0]']           
 tchNormalization)                                                                                
                                                                                                  
 tf.nn.relu_11 (TFOpLambda)  (None, 14, 14, 256)          0         ['batch_normalization_13[0][0]
                                                                    ']                            
                                                                                                  
 conv2d_14 (Conv2D)          (None, 14, 14, 256)          590080    ['tf.nn.relu_11[0][0]']       
                                                                                                  
 batch_normalization_14 (Ba  (None, 14, 14, 256)          1024      ['conv2d_14[0][0]']           
 tchNormalization)                                                                                
                                                                                                  
 add_5 (Add)                 (None, 14, 14, 256)          0         ['batch_normalization_14[0][0]
                                                                    ',                            
                                                                     'tf.nn.relu_10[0][0]']       
                                                                                                  
 tf.nn.relu_12 (TFOpLambda)  (None, 14, 14, 256)          0         ['add_5[0][0]']               
                                                                                                  
 conv2d_15 (Conv2D)          (None, 7, 7, 512)            1180160   ['tf.nn.relu_12[0][0]']       
                                                                                                  
 batch_normalization_15 (Ba  (None, 7, 7, 512)            2048      ['conv2d_15[0][0]']           
 tchNormalization)                                                                                
                                                                                                  
 tf.nn.relu_13 (TFOpLambda)  (None, 7, 7, 512)            0         ['batch_normalization_15[0][0]
                                                                    ']                            
                                                                                                  
 conv2d_16 (Conv2D)          (None, 7, 7, 512)            2359808   ['tf.nn.relu_13[0][0]']       
                                                                                                  
 conv2d_17 (Conv2D)          (None, 7, 7, 512)            131584    ['tf.nn.relu_12[0][0]']       
                                                                                                  
 batch_normalization_16 (Ba  (None, 7, 7, 512)            2048      ['conv2d_16[0][0]']           
 tchNormalization)                                                                                
                                                                                                  
 batch_normalization_17 (Ba  (None, 7, 7, 512)            2048      ['conv2d_17[0][0]']           
 tchNormalization)                                                                                
                                                                                                  
 add_6 (Add)                 (None, 7, 7, 512)            0         ['batch_normalization_16[0][0]
                                                                    ',                            
                                                                     'batch_normalization_17[0][0]
                                                                    ']                            
                                                                                                  
 tf.nn.relu_14 (TFOpLambda)  (None, 7, 7, 512)            0         ['add_6[0][0]']               
                                                                                                  
 conv2d_18 (Conv2D)          (None, 7, 7, 512)            2359808   ['tf.nn.relu_14[0][0]']       
                                                                                                  
 batch_normalization_18 (Ba  (None, 7, 7, 512)            2048      ['conv2d_18[0][0]',           
 tchNormalization)                                                   'conv2d_19[0][0]']           
                                                                                                  
 tf.nn.relu_15 (TFOpLambda)  (None, 7, 7, 512)            0         ['batch_normalization_18[0][0]
                                                                    ']                            
                                                                                                  
 conv2d_19 (Conv2D)          (None, 7, 7, 512)            2359808   ['tf.nn.relu_15[0][0]']       
                                                                                                  
 add_7 (Add)                 (None, 7, 7, 512)            0         ['batch_normalization_18[1][0]
                                                                    ',                            
                                                                     'tf.nn.relu_14[0][0]']       
                                                                                                  
 tf.nn.relu_16 (TFOpLambda)  (None, 7, 7, 512)            0         ['add_7[0][0]']               
                                                                                                  
 global_average_pooling2d (  (None, 512)                  0         ['tf.nn.relu_16[0][0]']       
 GlobalAveragePooling2D)                                                                          
                                                                                                  
 dense (Dense)               (None, 2)                    1026      ['global_average_pooling2d[0][
                                                                    0]']                          
                                                                                                  
==================================================================================================
Total params: 11189890 (42.69 MB)
Trainable params: 11181314 (42.65 MB)
…
